…
      "text/html": [
       "<pre style=\"white-space:pre;overflow-x:auto;line-height:normal;font-family:Menlo,'DejaVu Sans Mono',consolas,'Courier New',monospace\"><span style=\"font-weight: bold\"> Non-trainable params: </span><span style=\"color: #00af00; text-decoration-color: #00af00\">576</span> (2.25 KB)\n",
       "</pre>\n"
      ],
      "text/plain": [
       "\u001b[1m Non-trainable params: \u001b[0m\u001b[38;5;34m576\u001b[0m (2.25 KB)\n"
      ]
     },
     "metadata": {},
     "output_type": "display_data"
    }
   ],
   "source": [
    "model = Sequential()\n",
    "model.add(Conv2D(32 , (3,3) , strides = 1 , padding = 'same' , activation = 'relu' , input_shape = (150,150,1)))\n",
    "model.add(BatchNormalization())\n",
    "model.add(MaxPool2D((2,2) , strides = 2 , padding = 'same'))\n",
    "\n",
    "model.add(Conv2D(64 , (3,3) , strides = 1 , padding = 'same' , activation = 'relu'))\n",
    "# model.add(Dropout(0.2))\n",
    "model.add(BatchNormalization())\n",
    "model.add(MaxPool2D((2,2) , strides = 2 , padding = 'same'))\n",
    "\n",
    "model.add(Conv2D(64 , (3,3) , strides = 1 , padding = 'same' , activation = 'relu'))\n",
    "model.add(Dropout(0.5))\n",
    "model.add(BatchNormalization())\n",
    "model.add(MaxPool2D((2,2) , strides = 2 , padding = 'same'))\n",
    "\n",
    "model.add(Conv2D(128 , (3,3) , strides = 1 , padding = 'same' , activation = 'relu'))\n",
    "model.add(Dropout(0.5))\n",
    "model.add(BatchNormalization())\n",
    "model.add(MaxPool2D((2,2) , strides = 2 , padding = 'same'))\n",
    "\n",
    "# model.add(Conv2D(256 , (3,3) , strides = 1 , padding = 'same' , activation = 'relu'))\n",
    "# model.add(Dropout(0.3))\n",
    "# model.add(BatchNormalization())\n",
    "# model.add(MaxPool2D((2,2) , strides = 2 , padding = 'same'))\n",
    "model.add(Flatten())\n",
    "model.add(Dense(128, activation='relu', kernel_regularizer=l2(0.01)))\n",
    "model.add(Dropout(0.5))\n",
    "model.add(Dense(units = 1 , activation = 'sigmoid'))\n",
    "\n",
    "\n",
    "model.compile(optimizer = Adam(learning_rate=0.001) , loss = 'binary_crossentropy' , metrics = ['accuracy'])\n",
    "\n",
    "model.summary()"
…
